…
 PROGRAM PRAKTIKUM 8: JST 3 (CONVOLUTIONAL NEURAL NETWORK) 
************************************************************

--- [TAHAP 1] Inisialisasi Data Generator ---
Found 1751 images belonging to 3 classes.
Found 437 images belonging to 3 classes.

--- [TAHAP 2] Membangun Arsitektur CNN ---

> Ringkasan Model:
Model: "sequential"
┏━━━━━━━━━━━━━━━━━━━━━━━━━━━━━━━━━━━━━━┳━━━━━━━━━━━━━━━━━━━━━━━━━━━━━┳━━━━━━━━━━━━━━━━━┓
┃ Layer (type)                         ┃ Output Shape                ┃         Param # ┃
┡━━━━━━━━━━━━━━━━━━━━━━━━━━━━━━━━━━━━━━╇━━━━━━━━━━━━━━━━━━━━━━━━━━━━━╇━━━━━━━━━━━━━━━━━┩
│ conv2d (Conv2D)                      │ (None, 148, 148, 32)        │             896 │
├──────────────────────────────────────┼─────────────────────────────┼─────────────────┤
│ max_pooling2d (MaxPooling2D)         │ (None, 74, 74, 32)          │               0 │
├──────────────────────────────────────┼─────────────────────────────┼─────────────────┤
│ conv2d_1 (Conv2D)                    │ (None, 72, 72, 64)          │          18,496 │
├──────────────────────────────────────┼─────────────────────────────┼─────────────────┤
│ max_pooling2d_1 (MaxPooling2D)       │ (None, 36, 36, 64)          │               0 │
├──────────────────────────────────────┼─────────────────────────────┼─────────────────┤
│ conv2d_2 (Conv2D)                    │ (None, 34, 34, 128)         │          73,856 │
├──────────────────────────────────────┼─────────────────────────────┼─────────────────┤
│ max_pooling2d_2 (MaxPooling2D)       │ (None, 17, 17, 128)         │               0 │
├──────────────────────────────────────┼─────────────────────────────┼─────────────────┤
│ flatten (Flatten)                    │ (None, 36992)               │               0 │
├──────────────────────────────────────┼─────────────────────────────┼─────────────────┤
│ dense (Dense)                        │ (None, 512)                 │      18,940,416 │
├──────────────────────────────────────┼─────────────────────────────┼─────────────────┤
│ dense_1 (Dense)                      │ (None, 3)                   │           1,539 │
└──────────────────────────────────────┴─────────────────────────────┴─────────────────┘
 Total params: 19,035,203 (72.61 MB)
 Trainable params: 19,035,203 (72.61 MB)
 Non-trainable params: 0 (0.00 B)

--- [TAHAP 3] Mengkompilasi Model ---

--- [TAHAP 4] Pelatihan Model (10 Epoch) ---
Epoch 1/10
55/55 ━━━━━━━━━━━━━━━━━━━━ 36s 601ms/step - accuracy: 0.6733 - loss: 0.7882 - val_accuracy: 0.8696 - val_loss: 0.3950
…
